Selected temporal encoder: conformer
Lipreading(
  (visual_frontend): VisualFrontend(
    (frontend3D): Sequential(
      (0): Conv3d(1, 64, kernel_size=(5, 7, 7), stride=(1, 2, 2), padding=(2, 3, 3), bias=False)
      (1): BatchNorm3d(64, eps=1e-05, momentum=0.1, affine=True, track_running_stats=True)
      (2): ReLU(inplace=True)
      (3): MaxPool3d(kernel_size=(1, 3, 3), stride=(1, 2, 2), padding=(0, 1, 1), dilation=1, ceil_mode=False)
    )
    (resnet_trunk): ResNet(
      (layer1): Sequential(
        (0): BasicBlock(
          (conv1): Conv2d(64, 64, kernel_size=(3, 3), stride=(1, 1), padding=(1, 1), bias=False)
          (bn1): BatchNorm2d(64, eps=1e-05, momentum=0.1, affine=True, track_running_stats=True)
          (relu1): SiLU()
          (relu2): SiLU()
          (conv2): Conv2d(64, 64, kernel_size=(3, 3), stride=(1, 1), padding=(1, 1), bias=False)
          (bn2): BatchNorm2d(64, eps=1e-05, momentum=0.1, affine=True, track_running_stats=True)
        )
        (1): BasicBlock(
          (conv1): Conv2d(64, 64, kernel_size=(3, 3), stride=(1, 1), padding=(1, 1), bias=False)
          (bn1): BatchNorm2d(64, eps=1e-05, momentum=0.1, affine=True, track_running_stats=True)
          (relu1): SiLU()
          (relu2): SiLU()
          (conv2): Conv2d(64, 64, kernel_size=(3, 3), stride=(1, 1), padding=(1, 1), bias=False)
          (bn2): BatchNorm2d(64, eps=1e-05, momentum=0.1, affine=True, track_running_stats=True)
        )
      )
      (layer2): Sequential(
        (0): BasicBlock(
          (conv1): Conv2d(64, 128, kernel_size=(3, 3), stride=(2, 2), padding=(1, 1), bias=False)
          (bn1): BatchNorm2d(128, eps=1e-05, momentum=0.1, affine=True, track_running_stats=True)
          (relu1): SiLU()
          (relu2): SiLU()
          (conv2): Conv2d(128, 128, kernel_size=(3, 3), stride=(1, 1), padding=(1, 1), bias=False)
          (bn2): BatchNorm2d(128, eps=1e-05, momentum=0.1, affine=True, track_running_stats=True)
          (downsample): Sequential(
            (0): Conv2d(64, 128, kernel_size=(1, 1), stride=(2, 2), bias=False)
            (1): BatchNorm2d(128, eps=1e-05, momentum=0.1, affine=True, track_running_stats=True)
          )
        )
        (1): BasicBlock(
          (conv1): Conv2d(128, 128, kernel_size=(3, 3), stride=(1, 1), padding=(1, 1), bias=False)
          (bn1): BatchNorm2d(128, eps=1e-05, momentum=0.1, affine=True, track_running_stats=True)
          (relu1): SiLU()
          (relu2): SiLU()
          (conv2): Conv2d(128, 128, kernel_size=(3, 3), stride=(1, 1), padding=(1, 1), bias=False)
          (bn2): BatchNorm2d(128, eps=1e-05, momentum=0.1, affine=True, track_running_stats=True)
        )
      )
      (layer3): Sequential(
        (0): BasicBlock(
          (conv1): Conv2d(128, 256, kernel_size=(3, 3), stride=(2, 2), padding=(1, 1), bias=False)
          (bn1): BatchNorm2d(256, eps=1e-05, momentum=0.1, affine=True, track_running_stats=True)
          (relu1): SiLU()
          (relu2): SiLU()
          (conv2): Conv2d(256, 256, kernel_size=(3, 3), stride=(1, 1), padding=(1, 1), bias=False)
          (bn2): BatchNorm2d(256, eps=1e-05, momentum=0.1, affine=True, track_running_stats=True)
          (downsample): Sequential(
            (0): Conv2d(128, 256, kernel_size=(1, 1), stride=(2, 2), bias=False)
            (1): BatchNorm2d(256, eps=1e-05, momentum=0.1, affine=True, track_running_stats=True)
          )
        )
        (1): BasicBlock(
          (conv1): Conv2d(256, 256, kernel_size=(3, 3), stride=(1, 1), padding=(1, 1), bias=False)
          (bn1): BatchNorm2d(256, eps=1e-05, momentum=0.1, affine=True, track_running_stats=True)
          (relu1): SiLU()
          (relu2): SiLU()
          (conv2): Conv2d(256, 256, kernel_size=(3, 3), stride=(1, 1), padding=(1, 1), bias=False)
          (bn2): BatchNorm2d(256, eps=1e-05, momentum=0.1, affine=True, track_running_stats=True)
        )
      )
      (layer4): Sequential(
        (0): BasicBlock(
          (conv1): Conv2d(256, 512, kernel_size=(3, 3), stride=(2, 2), padding=(1, 1), bias=False)
          (bn1): BatchNorm2d(512, eps=1e-05, momentum=0.1, affine=True, track_running_stats=True)
          (relu1): SiLU()
          (relu2): SiLU()
          (conv2): Conv2d(512, 512, kernel_size=(3, 3), stride=(1, 1), padding=(1, 1), bias=False)
          (bn2): BatchNorm2d(512, eps=1e-05, momentum=0.1, affine=True, track_running_stats=True)
          (downsample): Sequential(
            (0): Conv2d(256, 512, kernel_size=(1, 1), stride=(2, 2), bias=False)
            (1): BatchNorm2d(512, eps=1e-05, momentum=0.1, affine=True, track_running_stats=True)
          )
        )
        (1): BasicBlock(
          (conv1): Conv2d(512, 512, kernel_size=(3, 3), stride=(1, 1), padding=(1, 1), bias=False)
          (bn1): BatchNorm2d(512, eps=1e-05, momentum=0.1, affine=True, track_running_stats=True)
          (relu1): SiLU()
          (relu2): SiLU()
          (conv2): Conv2d(512, 512, kernel_size=(3, 3), stride=(1, 1), padding=(1, 1), bias=False)
          (bn2): BatchNorm2d(512, eps=1e-05, momentum=0.1, affine=True, track_running_stats=True)
        )
      )
      (avgpool): AdaptiveAvgPool2d(output_size=1)
    )
  )
  (adapter): Identity()
  (encoder): ConformerEncoder(
    (embed): Sequential(
      (0): RelPositionalEncoding(
        (dropout): Dropout(p=0.2, inplace=False)
      )
    )
    (encoders): MultiSequential(
      (0): EncoderLayer(
        (self_attn): RelPositionMultiHeadedAttention(
          (linear_q): Linear(in_features=512, out_features=512, bias=True)
          (linear_k): Linear(in_features=512, out_features=512, bias=True)
          (linear_v): Linear(in_features=512, out_features=512, bias=True)
          (linear_out): Linear(in_features=512, out_features=512, bias=True)
          (dropout): Dropout(p=0.0, inplace=False)
          (linear_pos): Linear(in_features=512, out_features=512, bias=False)
        )
        (feed_forward): PositionwiseFeedForward(
          (w_1): Linear(in_features=512, out_features=2048, bias=True)
          (w_2): Linear(in_features=2048, out_features=512, bias=True)
          (dropout): Dropout(p=0.2, inplace=False)
        )
        (conv_module): ConvolutionModule(
          (pointwise_cov1): Conv1d(512, 1024, kernel_size=(1,), stride=(1,))
          (depthwise_conv): Conv1d(512, 512, kernel_size=(31,), stride=(1,), padding=(15,), groups=512)
          (norm): BatchNorm1d(512, eps=1e-05, momentum=0.1, affine=True, track_running_stats=True)
          (pointwise_cov2): Conv1d(512, 512, kernel_size=(1,), stride=(1,))
          (activation): SiLU(inplace=True)
        )
        (norm_ff): LayerNorm((512,), eps=1e-12, elementwise_affine=True)
        (norm_mha): LayerNorm((512,), eps=1e-12, elementwise_affine=True)
        (feed_forward_macaron): PositionwiseFeedForward(
          (w_1): Linear(in_features=512, out_features=2048, bias=True)
          (w_2): Linear(in_features=2048, out_features=512, bias=True)
          (dropout): Dropout(p=0.2, inplace=False)
        )
        (norm_ff_macaron): LayerNorm((512,), eps=1e-12, elementwise_affine=True)
        (norm_conv): LayerNorm((512,), eps=1e-12, elementwise_affine=True)
        (norm_final): LayerNorm((512,), eps=1e-12, elementwise_affine=True)
        (dropout): Dropout(p=0.2, inplace=False)
      )
      (1): EncoderLayer(
        (self_attn): RelPositionMultiHeadedAttention(
          (linear_q): Linear(in_features=512, out_features=512, bias=True)
          (linear_k): Linear(in_features=512, out_features=512, bias=True)
          (linear_v): Linear(in_features=512, out_features=512, bias=True)
          (linear_out): Linear(in_features=512, out_features=512, bias=True)
          (dropout): Dropout(p=0.0, inplace=False)
          (linear_pos): Linear(in_features=512, out_features=512, bias=False)
        )
        (feed_forward): PositionwiseFeedForward(
          (w_1): Linear(in_features=512, out_features=2048, bias=True)
          (w_2): Linear(in_features=2048, out_features=512, bias=True)
          (dropout): Dropout(p=0.2, inplace=False)
        )
        (conv_module): ConvolutionModule(
          (pointwise_cov1): Conv1d(512, 1024, kernel_size=(1,), stride=(1,))
          (depthwise_conv): Conv1d(512, 512, kernel_size=(31,), stride=(1,), padding=(15,), groups=512)
          (norm): BatchNorm1d(512, eps=1e-05, momentum=0.1, affine=True, track_running_stats=True)
          (pointwise_cov2): Conv1d(512, 512, kernel_size=(1,), stride=(1,))
          (activation): SiLU(inplace=True)
        )
        (norm_ff): LayerNorm((512,), eps=1e-12, elementwise_affine=True)
        (norm_mha): LayerNorm((512,), eps=1e-12, elementwise_affine=True)
        (feed_forward_macaron): PositionwiseFeedForward(
          (w_1): Linear(in_features=512, out_features=2048, bias=True)
          (w_2): Linear(in_features=2048, out_features=512, bias=True)
          (dropout): Dropout(p=0.2, inplace=False)
        )
        (norm_ff_macaron): LayerNorm((512,), eps=1e-12, elementwise_affine=True)
        (norm_conv): LayerNorm((512,), eps=1e-12, elementwise_affine=True)
        (norm_final): LayerNorm((512,), eps=1e-12, elementwise_affine=True)
        (dropout): Dropout(p=0.2, inplace=False)
      )
      (2): EncoderLayer(
        (self_attn): RelPositionMultiHeadedAttention(
          (linear_q): Linear(in_features=512, out_features=512, bias=True)
          (linear_k): Linear(in_features=512, out_features=512, bias=True)
          (linear_v): Linear(in_features=512, out_features=512, bias=True)
          (linear_out): Linear(in_features=512, out_features=512, bias=True)
          (dropout): Dropout(p=0.0, inplace=False)
          (linear_pos): Linear(in_features=512, out_features=512, bias=False)
        )
        (feed_forward): PositionwiseFeedForward(
          (w_1): Linear(in_features=512, out_features=2048, bias=True)
          (w_2): Linear(in_features=2048, out_features=512, bias=True)
          (dropout): Dropout(p=0.2, inplace=False)
        )
        (conv_module): ConvolutionModule(
          (pointwise_cov1): Conv1d(512, 1024, kernel_size=(1,), stride=(1,))
          (depthwise_conv): Conv1d(512, 512, kernel_size=(31,), stride=(1,), padding=(15,), groups=512)
          (norm): BatchNorm1d(512, eps=1e-05, momentum=0.1, affine=True, track_running_stats=True)
          (pointwise_cov2): Conv1d(512, 512, kernel_size=(1,), stride=(1,))
          (activation): SiLU(inplace=True)
        )
        (norm_ff): LayerNorm((512,), eps=1e-12, elementwise_affine=True)
        (norm_mha): LayerNorm((512,), eps=1e-12, elementwise_affine=True)
        (feed_forward_macaron): PositionwiseFeedForward(
          (w_1): Linear(in_features=512, out_features=2048, bias=True)
          (w_2): Linear(in_features=2048, out_features=512, bias=True)
          (dropout): Dropout(p=0.2, inplace=False)
        )
        (norm_ff_macaron): LayerNorm((512,), eps=1e-12, elementwise_affine=True)
        (norm_conv): LayerNorm((512,), eps=1e-12, elementwise_affine=True)
        (norm_final): LayerNorm((512,), eps=1e-12, elementwise_affine=True)
        (dropout): Dropout(p=0.2, inplace=False)
      )
      (3): EncoderLayer(
        (self_attn): RelPositionMultiHeadedAttention(
          (linear_q): Linear(in_features=512, out_features=512, bias=True)
          (linear_k): Linear(in_features=512, out_features=512, bias=True)
          (linear_v): Linear(in_features=512, out_features=512, bias=True)
          (linear_out): Linear(in_features=512, out_features=512, bias=True)
          (dropout): Dropout(p=0.0, inplace=False)
          (linear_pos): Linear(in_features=512, out_features=512, bias=False)
        )
        (feed_forward): PositionwiseFeedForward(
          (w_1): Linear(in_features=512, out_features=2048, bias=True)
          (w_2): Linear(in_features=2048, out_features=512, bias=True)
          (dropout): Dropout(p=0.2, inplace=False)
        )
        (conv_module): ConvolutionModule(
          (pointwise_cov1): Conv1d(512, 1024, kernel_size=(1,), stride=(1,))
          (depthwise_conv): Conv1d(512, 512, kernel_size=(31,), stride=(1,), padding=(15,), groups=512)
          (norm): BatchNorm1d(512, eps=1e-05, momentum=0.1, affine=True, track_running_stats=True)
          (pointwise_cov2): Conv1d(512, 512, kernel_size=(1,), stride=(1,))
          (activation): SiLU(inplace=True)
        )
        (norm_ff): LayerNorm((512,), eps=1e-12, elementwise_affine=True)
        (norm_mha): LayerNorm((512,), eps=1e-12, elementwise_affine=True)
        (feed_forward_macaron): PositionwiseFeedForward(
          (w_1): Linear(in_features=512, out_features=2048, bias=True)
          (w_2): Linear(in_features=2048, out_features=512, bias=True)
          (dropout): Dropout(p=0.2, inplace=False)
        )
        (norm_ff_macaron): LayerNorm((512,), eps=1e-12, elementwise_affine=True)
        (norm_conv): LayerNorm((512,), eps=1e-12, elementwise_affine=True)
        (norm_final): LayerNorm((512,), eps=1e-12, elementwise_affine=True)
        (dropout): Dropout(p=0.2, inplace=False)
      )
      (4): EncoderLayer(
        (self_attn): RelPositionMultiHeadedAttention(
          (linear_q): Linear(in_features=512, out_features=512, bias=True)
          (linear_k): Linear(in_features=512, out_features=512, bias=True)
          (linear_v): Linear(in_features=512, out_features=512, bias=True)
          (linear_out): Linear(in_features=512, out_features=512, bias=True)
          (dropout): Dropout(p=0.0, inplace=False)
          (linear_pos): Linear(in_features=512, out_features=512, bias=False)
        )
        (feed_forward): PositionwiseFeedForward(
          (w_1): Linear(in_features=512, out_features=2048, bias=True)
          (w_2): Linear(in_features=2048, out_features=512, bias=True)
          (dropout): Dropout(p=0.2, inplace=False)
        )
        (conv_module): ConvolutionModule(
          (pointwise_cov1): Conv1d(512, 1024, kernel_size=(1,), stride=(1,))
          (depthwise_conv): Conv1d(512, 512, kernel_size=(31,), stride=(1,), padding=(15,), groups=512)
          (norm): BatchNorm1d(512, eps=1e-05, momentum=0.1, affine=True, track_running_stats=True)
          (pointwise_cov2): Conv1d(512, 512, kernel_size=(1,), stride=(1,))
          (activation): SiLU(inplace=True)
        )
        (norm_ff): LayerNorm((512,), eps=1e-12, elementwise_affine=True)
        (norm_mha): LayerNorm((512,), eps=1e-12, elementwise_affine=True)
        (feed_forward_macaron): PositionwiseFeedForward(
          (w_1): Linear(in_features=512, out_features=2048, bias=True)
          (w_2): Linear(in_features=2048, out_features=512, bias=True)
          (dropout): Dropout(p=0.2, inplace=False)
        )
        (norm_ff_macaron): LayerNorm((512,), eps=1e-12, elementwise_affine=True)
        (norm_conv): LayerNorm((512,), eps=1e-12, elementwise_affine=True)
        (norm_final): LayerNorm((512,), eps=1e-12, elementwise_affine=True)
        (dropout): Dropout(p=0.2, inplace=False)
      )
      (5): EncoderLayer(
        (self_attn): RelPositionMultiHeadedAttention(
          (linear_q): Linear(in_features=512, out_features=512, bias=True)
          (linear_k): Linear(in_features=512, out_features=512, bias=True)
          (linear_v): Linear(in_features=512, out_features=512, bias=True)
          (linear_out): Linear(in_features=512, out_features=512, bias=True)
          (dropout): Dropout(p=0.0, inplace=False)
          (linear_pos): Linear(in_features=512, out_features=512, bias=False)
        )
        (feed_forward): PositionwiseFeedForward(
          (w_1): Linear(in_features=512, out_features=2048, bias=True)
          (w_2): Linear(in_features=2048, out_features=512, bias=True)
          (dropout): Dropout(p=0.2, inplace=False)
        )
        (conv_module): ConvolutionModule(
          (pointwise_cov1): Conv1d(512, 1024, kernel_size=(1,), stride=(1,))
          (depthwise_conv): Conv1d(512, 512, kernel_size=(31,), stride=(1,), padding=(15,), groups=512)
          (norm): BatchNorm1d(512, eps=1e-05, momentum=0.1, affine=True, track_running_stats=True)
          (pointwise_cov2): Conv1d(512, 512, kernel_size=(1,), stride=(1,))
          (activation): SiLU(inplace=True)
        )
        (norm_ff): LayerNorm((512,), eps=1e-12, elementwise_affine=True)
        (norm_mha): LayerNorm((512,), eps=1e-12, elementwise_affine=True)
        (feed_forward_macaron): PositionwiseFeedForward(
          (w_1): Linear(in_features=512, out_features=2048, bias=True)
          (w_2): Linear(in_features=2048, out_features=512, bias=True)
          (dropout): Dropout(p=0.2, inplace=False)
        )
        (norm_ff_macaron): LayerNorm((512,), eps=1e-12, elementwise_affine=True)
        (norm_conv): LayerNorm((512,), eps=1e-12, elementwise_affine=True)
        (norm_final): LayerNorm((512,), eps=1e-12, elementwise_affine=True)
        (dropout): Dropout(p=0.2, inplace=False)
      )
    )
    (after_norm): LayerNorm((512,), eps=1e-12, elementwise_affine=True)
  )
  (output_layer): Linear(in_features=512, out_features=227, bias=True)
)
ArabicTransformerDecoder(
  (embedding): Sequential(
    (0): Embedding(229, 512)
    (1): PositionalEncoding(
      (dropout): Dropout(p=0.1, inplace=False)
    )
  )
  (memory_projection): Linear(in_features=512, out_features=512, bias=True)
  (decoders): MultiSequential(
    (0): CustomDecoderLayer(
      (self_attn): MultiHeadedAttention(
        (linear_q): Linear(in_features=512, out_features=512, bias=True)
        (linear_k): Linear(in_features=512, out_features=512, bias=True)
        (linear_v): Linear(in_features=512, out_features=512, bias=True)
        (linear_out): Linear(in_features=512, out_features=512, bias=True)
        (dropout): Dropout(p=0.1, inplace=False)
      )
      (src_attn): MultiHeadedAttention(
        (linear_q): Linear(in_features=512, out_features=512, bias=True)
        (linear_k): Linear(in_features=512, out_features=512, bias=True)
        (linear_v): Linear(in_features=512, out_features=512, bias=True)
        (linear_out): Linear(in_features=512, out_features=512, bias=True)
        (dropout): Dropout(p=0.1, inplace=False)
      )
      (feed_forward): PositionwiseFeedForward(
        (w_1): Linear(in_features=512, out_features=2048, bias=True)
        (w_2): Linear(in_features=2048, out_features=512, bias=True)
        (dropout): Dropout(p=0.2, inplace=False)
      )
      (norm1): LayerNorm((512,), eps=1e-12, elementwise_affine=True)
      (norm2): LayerNorm((512,), eps=1e-12, elementwise_affine=True)
      (norm3): LayerNorm((512,), eps=1e-12, elementwise_affine=True)
      (dropout): Dropout(p=0.2, inplace=False)
    )
    (1): CustomDecoderLayer(
      (self_attn): MultiHeadedAttention(
        (linear_q): Linear(in_features=512, out_features=512, bias=True)
        (linear_k): Linear(in_features=512, out_features=512, bias=True)
        (linear_v): Linear(in_features=512, out_features=512, bias=True)
        (linear_out): Linear(in_features=512, out_features=512, bias=True)
        (dropout): Dropout(p=0.1, inplace=False)
      )
      (src_attn): MultiHeadedAttention(
        (linear_q): Linear(in_features=512, out_features=512, bias=True)
        (linear_k): Linear(in_features=512, out_features=512, bias=True)
        (linear_v): Linear(in_features=512, out_features=512, bias=True)
        (linear_out): Linear(in_features=512, out_features=512, bias=True)
        (dropout): Dropout(p=0.1, inplace=False)
      )
      (feed_forward): PositionwiseFeedForward(
        (w_1): Linear(in_features=512, out_features=2048, bias=True)
        (w_2): Linear(in_features=2048, out_features=512, bias=True)
        (dropout): Dropout(p=0.2, inplace=False)
      )
      (norm1): LayerNorm((512,), eps=1e-12, elementwise_affine=True)
      (norm2): LayerNorm((512,), eps=1e-12, elementwise_affine=True)
      (norm3): LayerNorm((512,), eps=1e-12, elementwise_affine=True)
      (dropout): Dropout(p=0.2, inplace=False)
    )
    (2): CustomDecoderLayer(
      (self_attn): MultiHeadedAttention(
        (linear_q): Linear(in_features=512, out_features=512, bias=True)
        (linear_k): Linear(in_features=512, out_features=512, bias=True)
        (linear_v): Linear(in_features=512, out_features=512, bias=True)
        (linear_out): Linear(in_features=512, out_features=512, bias=True)
        (dropout): Dropout(p=0.1, inplace=False)
      )
      (src_attn): MultiHeadedAttention(
        (linear_q): Linear(in_features=512, out_features=512, bias=True)
        (linear_k): Linear(in_features=512, out_features=512, bias=True)
        (linear_v): Linear(in_features=512, out_features=512, bias=True)
        (linear_out): Linear(in_features=512, out_features=512, bias=True)
        (dropout): Dropout(p=0.1, inplace=False)
      )
      (feed_forward): PositionwiseFeedForward(
        (w_1): Linear(in_features=512, out_features=2048, bias=True)
        (w_2): Linear(in_features=2048, out_features=512, bias=True)
        (dropout): Dropout(p=0.2, inplace=False)
      )
      (norm1): LayerNorm((512,), eps=1e-12, elementwise_affine=True)
      (norm2): LayerNorm((512,), eps=1e-12, elementwise_affine=True)
      (norm3): LayerNorm((512,), eps=1e-12, elementwise_affine=True)
      (dropout): Dropout(p=0.2, inplace=False)
    )
    (3): CustomDecoderLayer(
      (self_attn): MultiHeadedAttention(
        (linear_q): Linear(in_features=512, out_features=512, bias=True)
        (linear_k): Linear(in_features=512, out_features=512, bias=True)
        (linear_v): Linear(in_features=512, out_features=512, bias=True)
        (linear_out): Linear(in_features=512, out_features=512, bias=True)
        (dropout): Dropout(p=0.1, inplace=False)
      )
      (src_attn): MultiHeadedAttention(
        (linear_q): Linear(in_features=512, out_features=512, bias=True)
        (linear_k): Linear(in_features=512, out_features=512, bias=True)
        (linear_v): Linear(in_features=512, out_features=512, bias=True)
        (linear_out): Linear(in_features=512, out_features=512, bias=True)
        (dropout): Dropout(p=0.1, inplace=False)
      )
      (feed_forward): PositionwiseFeedForward(
        (w_1): Linear(in_features=512, out_features=2048, bias=True)
        (w_2): Linear(in_features=2048, out_features=512, bias=True)
        (dropout): Dropout(p=0.2, inplace=False)
      )
      (norm1): LayerNorm((512,), eps=1e-12, elementwise_affine=True)
      (norm2): LayerNorm((512,), eps=1e-12, elementwise_affine=True)
      (norm3): LayerNorm((512,), eps=1e-12, elementwise_affine=True)
      (dropout): Dropout(p=0.2, inplace=False)
    )
  )
  (after_norm): LayerNorm((512,), eps=1e-12, elementwise_affine=True)
  (output_layer): Linear(in_features=512, out_features=229, bias=True)
)
No checkpoint specified. Starting training from scratch.
Starting training for 80 epochs
Logs will be saved to Logs/training_20250421_205825.log
Checkpoints will be saved every 10 epochs
--------------------------------------------------
Epoch 1/80 - Training...
Epoch 1/80 - Evaluating...

Running hybrid CTC/Attention decoding for validation...
--------------------------------------------------
…
